cifar_net.pth (torch, 250951 bytes, 10 tensors)

conv1.weight f4 [6, 3, 5, 5]
00000000: 943a 4ebe 7619 4b3e 01a0 c93e ba50 f93d
00000010: e4dc 20be 83b9 1b3e e15a 153e 52ad 3bbd
00000020: e51a c4be d34f ab3d 54da d73c 6f4d 8bbe
00000030: 4747 e7be e8ba 51be 0722 233e 446e 60be
00000040: 19f5 c0be 684f 83bd 9920 7ebc 7c61 38be
00000050: e8ab 73be 988b 0bbe fec1 a63c 42b6 56bb
00000060: 74ff b1be 7382 93be f436 a73b e0a1 4f3e
00000070: 32ed 08be cd3b 7fbe f789 c33d 9ba5 d83e
00000080: af21 8c3c 81fb b5bd f78a 0d3d 3b13 a73e
00000090: a5eb dd3d 30d8 6cbe 9f46 e1bd 31a0 863e
000000a0: 9d02 4e3e bd58 82bd 4ba9 4b3e 0d72 b23e
000000b0: dcf5 033e b5a6 983e 7098 8f3e 13ea 8a3e
000000c0: b66b 023e 96a0 a3bd 6200 77be 2e3d 8dbd
000000d0: 3524 c23d a4a5 edbd 1cda 47be a396 efbc
000000e0: 5825 f03d 8be8 c1bc 5b99 4ebe a409 183e
000000f0: 4a7c 453d 6d05 d7bd a884 9cbe 6d34 ecbd
00000100: 5adc 963e 8cd8 d4bd edf8 9ebe 93ff 983c
00000110: 7a0e 5b3e f712 443d 8b3d 86bd 0a2f 853d
00000120: 3b2c 0b3e 8ba7 81bd e8fd 5fbe b5f6 b73e
00000130: 380f 073e 8f33 2ebd f8d0 243e d3d4 743e
00000140: fcaf 573e 6202 17be 8eaf b1bd 5a59 eabc
00000150: 11ce 813e 1b51 df3d c3ce 99be 4e0d 09be
00000160: ec22 1abd e2f1 9f3d 5c7c 14be 7101 b0be
00000170: 74c4 ebbd 80ef 0bbe cfd5 0a3c f304 48be
00000180: 40ef 9cbe cf69 2ebe b743 1dbd b58b b73c
00000190: a967 42be b434 88be f450 e3be e28a a8be
000001a0: 5136 88bd fa68 1c3c d728 b1be 5e83 9fbe
000001b0: ac44 b8bd 2c64 313e 476e 0abe 37c2 82be
000001c0: 1471 9dbe d5ee 9c3d 50c5 003e 3d26 eabd
000001d0: f0dd 59be 3100 17be ddd7 49bc c62e 9e3d
000001e0: b0bf 0b3d ab68 dabd 008e a6bd 08da 1d3e
000001f0: 5e15 0c3d 5fca 0ebd e2c1 393c f9c2 34be
00000200: 61b3 4abd eda6 333c fbb8 3e3d cd5f 09be
00000210: a552 31be 003f 3fbc 5373 033e cb4d 763c
00000220: f3e1 49be 4d09 27be 73c3 863e 37a4 a63e
00000230: ecb5 ddbc 302c 80bd 7527 9abc ef76 893e
00000240: 672d 453e 4e33 063b 2c43 333d 471b 283e
00000250: 0f7b 3f3e 6db9 ab3e 894a 3ebd dd95 adbd
00000260: 5d56 38bd 3e90 cebb 580c 503d edfa d4bc
00000270: e87f 45bd 6d83 6bbe f78d febd f38e 90be
00000280: a1b2 36be 1d4a 86be aaea 8fbe 2989 abbe
00000290: 841f b5be 56ce 40be 4266 89be 3ff6 57be
000002a0: d08d 8cbe ec50 1abe 8734 5ebe 1f19 7abe
000002b0: 1164 25be 55a7 77be 76d7 27be ceed 68bd
000002c0: 5f4c c1bc 0c29 063e 1e20 2d3c ce5e 85bd
000002d0: c68e af3c 4070 373e 58ed 3e3e 80ac 61bc
000002e0: a667 fc3c 80c6 e33d bb29 713d f507 76bc
000002f0: c45e 453c 0c4d 313d f87b 4d3d 979b 2d3e
00000300: 6792 813d 3550 103d 88a6 cf3d c140 80bd
00000310: 0921 d83d 8162 bf3d eae2 07bd 5f87 6fb9
00000320: e86c 6f3e 938d 8b3e 2a34 103e 5b15 313e
00000330: 66b5 3bbc 9555 9e3e a540 833e 0647 8f3e
00000340: 2a3d 233e 4eaa d43d 0317 463e 3483 6c3e
00000350: a30f 8b3e 02d3 543e 0eee 373d 34a1 1c3e
00000360: c5f5 7b3e 989f 923e 1cd8 8a3e 980d e53d
00000370: c359 f73b e0d8 cb3d 3096 1d3e a5e3 ab3c
00000380: 3055 8e3c 69b9 673d 634b 5a3d 73c5 023d
00000390: 5aaa 5fbc eaee 1b3e c1b4 44bd 75fa 073e
000003a0: f857 7b3d 9af6 68be 8134 d13c 842b 103e
000003b0: 2656 ef3d 22a2 023e 7af4 69be 9006 86be
000003c0: d864 a3bc becd d13d c90d 7dbc b3f5 8abd
000003d0: b773 a3bd e211 fe3b 3e31 57bd 4300 e1bc
000003e0: a554 05be 1de1 13be 4afe f4bc ec41 a3bd
000003f0: 1f27 82bd dfdd 2abe 46bc 79bd a445 3b3d
-0.20139533 0.19833931 0.39379886 0.121736005 -0.15709263 0.15207486 0.14585449 -0.045819588
-0.3830177 0.08364835 0.026349224 -0.27207515 -0.45171568 -0.20481455 0.15930949 -0.21917063
-0.37686995 -0.0641163 -0.015510702 -0.18005937 -0.23796046 -0.1362747 0.020356175 -0.0032762443
-0.34765208 -0.28810462 0.0051029865 0.20276594 -0.13371733 -0.24925156 0.09547799 0.42313847
0.017105905 -0.08885861 0.034556355 0.3263186 0.10835961 -0.23129344 -0.10999798 0.2629409
0.20118184 -0.06364582 0.19888799 0.3485264 0.12886757 0.29814687 0.28045988 0.2713171
0.12736401 -0.07989614 -0.2412124 -0.06896435 0.09479562 -0.11603859 -0.19516796 -0.029246634
0.11725873 -0.023670455 -0.20175688 0.14847428 0.048214234 -0.10499082 -0.3056996 -0.11533437
0.2946499 -0.103928655 -0.3104929 0.018676555 0.21392241 0.04786965 -0.06554707 0.065031126
0.13591091 -0.063307844 -0.21874201 0.3593041 0.13189399 -0.04252964 0.1609534 0.23909311
0.21063226 -0.14747003 -0.086760625 -0.02860706 0.2535253 0.109041415 -0.3004056 -0.13383982
-0.03763096 0.07809807 -0.14500564 -0.343761 -0.1151208 -0.13665581 0.0084738275 -0.19533138
-0.30651283 -0.1703255 -0.038394656 0.022405485 -0.18984856 -0.2660271 -0.443977 -0.3291846
-0.06650985 0.009546513 -0.3460147 -0.31154913 -0.08997473 0.17323369 -0.1351863 -0.255388
-0.30750334 0.07662741 0.12575269 -0.114330746 -0.21276069 -0.14746167 -0.012319532 0.07723765
0.034118354 -0.10664495 -0.08132553 0.15415204 0.034200065 -0.034860965 0.011337729 -0.17652501
-0.049487475 0.010965091 0.04656313 -0.13415451 -0.17316683 -0.011672735 0.12836961 0.015033196
-0.19715099 -0.16312142 0.2632099 0.3254716 -0.027064286 -0.06258428 -0.018817643 0.26848552
0.19255601 0.0020477357 0.043765232 0.16416655 0.18699287 0.33539906 -0.0464578 -0.0847585
-0.045004237 -0.006303816 0.050793022 -0.025998557 -0.048217684 -0.22999354 -0.124294214 -0.28234062
-0.17841579 -0.2622842 -0.28108722 -0.33503082 -0.35375607 -0.18828711 -0.2683583 -0.21090029
-0.27451944 -0.15069932 -0.21699725 -0.24423645 -0.16151454 -0.24184926 -0.16390786 -0.056867413
-0.023595987 0.13101596 0.010566739 -0.06512223 0.021430384 0.17913914 0.18645227 -0.013774037
0.030811142 0.11121845 0.058877688 -0.015016546 0.01204652 0.04328637 0.050167054 0.16953884
0.06326752 0.03523274 0.10139185 -0.06262351 0.10553176 0.0934496 -0.033175386 -0.00022843246
0.23381388 0.2725645 0.14082399 0.17293303 -0.011456823 0.3092467 0.25635257 0.27983874
0.15941301 0.103840455 0.19344716 0.23096925 0.27160367 0.20783618 0.04490476 0.15295869
0.24605472 0.28637385 0.27118003 0.111842334 0.007548542 0.09953475 0.15389323 0.020982573
0.017374605 0.056573305 0.05329455 0.031926583 -0.013651455 0.15227857 -0.048023943 0.13279136
0.06136319 -0.22750321 0.025537731 0.140791 0.116863534 0.12757161 -0.22847167 -0.26176882
-0.019945547 0.1024432 -0.015445181 -0.06785145 -0.07981055 0.0077535966 -0.052537195 -0.027465945
-0.1302057 -0.14441343 -0.02990641 -0.07971558 -0.06355118 -0.166862 -0.060970567 0.04572071

conv1.bias f4 [6]
00000000: 306f a73e 3f5d 88be 47eb a03e 8dde e9bd
00000010: fb9a 89be 716f 9ebe
0.32702017 -0.2663364 0.31429502 -0.11419401 -0.26876053 -0.30944398

conv2.weight f4 [16, 6, 5, 5]
00000000: 74ea d1bd 87e6 40bd 0220 1bbe 175e 083c
00000010: d837 bb3d 66a8 fc3c 208e 37be b5d5 43be
00000020: f5ef 8abc d38a ad3c 85d6 cc3d 6179 bdbd
00000030: fbc7 07be 29b5 d1bd d593 983d 6ad8 923c
00000040: 231d d4bc a2dd f8bd 7119 02be bc6d 87bc
00000050: db8c 3ebb b889 78bc 83e7 69be 24ba ffbd
00000060: cfeb 87bd 2c13 463d e9af cfbd f3af b1bd
00000070: 6168 afbd ba79 bebd 0bd8 af3d 1dfd 95bd
00000080: f331 5bbd 7df9 3dbe 15f9 123b 1091 c33c
00000090: 8c4c 80bd 22e9 95bd cd8d 18be 26d8 c7bc
000000a0: c77e 463d e341 983d 15aa bfbd 35e7 62be
000000b0: 22b7 2bbe 0fad f6bd b15e 623d 6b28 a5bd
000000c0: 1286 80be 3843 97be 8818 e0bd 4870 60bd
000000d0: 98af 91bd b06d 42be 3f3c f0bd d819 ccbd
000000e0: 434e 59bd adca d13c 502b 06be b457 01be
000000f0: 1096 97bd fde1 acbd 85cf ed3b c06d 033c
00000100: 7cd2 2fbd 5333 5fbc ae1a 94bc 9b5b 58bc
00000110: 5328 6bba 13eb 103d c125 5e3d 3a71 74bd
00000120: 9d66 7d3d 90c5 b73d 2940 043e 51cb cebd
00000130: 9053 3c3c a407 b73e 3360 043e 5544 323e
00000140: 5dbc 88bc 813c 863c cc00 133e 44e7 863e
00000150: d7c5 6d3e 5f49 dabc 857c 22bd 9a75 91bd
00000160: c31a 053e a6e7 213e dd03 8b3d 71b4 b1ba
00000170: 4295 44bd 875d 69bd 92d9 483e 740f e5bd
00000180: 9f95 b1bd e4c0 103d 984b 213d a924 113e
00000190: 701a 753d f371 263d 0a08 67bd b8e6 97bd
000001a0: 8051 abbd 112f 6e3d fedd 66bd e8d7 7c3c
000001b0: c415 d9bc 1c91 8e3c 2e47 03bd 65c3 9b3d
000001c0: 2739 2f3d a16f 0d3d f693 d3bd 2254 6c3c
000001d0: 7771 3c3d 752c 6d3d 228d 61bc 34b0 03be
000001e0: 61c8 06be dd20 c73c 015b 843d dfa1 bc3d
000001f0: 9ea8 9c3d 9996 15be ff37 febd d92a 873d
00000200: 1af7 123e e472 44ba 4306 183d f730 2fbe
00000210: e073 9dbd f33e a53d 0272 393d 61cb adbb
00000220: 3de7 47bd 33bf 44be 5568 e3bd f8a8 133d
00000230: 7924 ae3c 1928 983b a38a 2ebe 8e19 25bd
00000240: 7a38 8e3d 1689 2e3d 8d98 dd3d 8e7c 9abd
00000250: 7aef 3abd 1726 f23d 9112 453d 246e f0bc
00000260: 7f87 adbb 03f3 35bd 1f91 b6bc 50f5 553d
00000270: 1eec 50bd d427 853a 0132 a33d ff7c 843c
00000280: 43a6 5a3c af45 a9bd 336a 823c 9e93 573d
00000290: b229 8abc a8e1 78bd 3259 80bd a9a4 e7bc
000002a0: 1cb5 bdbc b19b 9fbd 6c21 9dbd 210e 2f3d
000002b0: 7e43 87bc 2647 cf3c 2e75 22bc dc5a 85b9
000002c0: 0255 153c aea3 5d3d 6315 9c3c 6f72 d8bc
000002d0: 4e78 94bd f6bf 813d ebfa 7abd b863 5ebd
000002e0: 61e5 25bb b829 1d3d 4daa 96bd 18f2 d6bc
000002f0: f53d 33bd 1883 f43b e6f2 8bbc 2b04 3cbd
00000300: 252c 9dbd 50f7 35bd afe6 24bd 7323 963c
00000310: 1d44 1abd 3121 353c 341c a9bd 34cb 123d
00000320: 9596 bdbc dd35 303d 5d49 8bbd 90ae 7b3d
00000330: 8532 8f3d b1c1 7cbd 6765 09bc f268 2d3d
00000340: 06fa a1bd 024f 81bd 7025 953d ce7c 27bc
00000350: 881a 4bbd 7054 293d 5906 963b 9fd6 0b3d
00000360: 21a9 81bd f47a 85bd bc1d 96bd 77a8 5b3d
00000370: 46cd 47bd ed4e 7b3c 5941 4c3b 13fb 603d
00000380: e41c 17bd 399d b73c dcc0 12bc ced3 13bd
00000390: 5de8 c23d be67 3a3c 347b 9cbc f9cc 603d
000003a0: 4758 80bd 5996 9c3d 8164 68bd 91cc 2b3d
000003b0: 7956 9dbd 0679 9fbd 01c7 183d 6dc0 8b3d
000003c0: 9705 c83a 1aec 623d 84a0 88bd cbb0 69bc
000003d0: 88ec 293d 6d96 95bd dc8f 4abd 9a03 a6bd
000003e0: e5d6 07bc dd81 d9bc b569 50bd f017 4bbd
000003f0: 7d2a 70bd f898 65bc 1952 1e3d 3303 893d
-0.102497965 -0.047094848 -0.15148929 0.008323214 0.09141511 0.030842017 -0.1792531 -0.19124492
-0.016960124 0.02118436 0.10001854 -0.09251667 -0.1325988 -0.10239632 0.07450072 0.01792546
-0.0258928 -0.12151648 -0.12705018 -0.016531818 -0.0029075656 -0.015169553 -0.22842221 -0.124866754
-0.06636774 0.048358127 -0.10140974 -0.08676138 -0.085648306 -0.09300561 0.08586129 -0.07323668
-0.053514432 -0.18552203 0.0022426296 0.023872882 -0.062646 -0.07319857 -0.14897843 -0.02439506
0.048460748 0.07434442 -0.093586124 -0.22158511 -0.16769078 -0.12044727 0.055266086 -0.0806435
-0.25102288 -0.2954347 -0.10942179 -0.05479458 -0.0711357 -0.18987155 -0.11730241 -0.09965867
-0.05305315 0.025609339 -0.1310246 -0.12631112 -0.07401669 -0.08441541 0.0072574043 0.008021772
-0.042925343 -0.0136230765 -0.018079128 -0.013205434 -0.00089705474 0.035380434 0.054235224 -0.059678294
0.061865438 0.08973229 0.129151 -0.10097373 0.011494532 0.35748017 0.12927322 0.17408879
-0.016691381 0.016386272 0.14355773 0.26348317 0.23220001 -0.026646314 -0.039669532 -0.07102509
0.1299849 0.15811023 0.06787846 -0.0013557804 -0.047993906 -0.05697396 0.19614246 -0.11184588
-0.08671116 0.035340205 0.039378732 0.14174141 0.059839666 0.040636014 -0.05640415 -0.07417053
-0.08365154 0.058150355 -0.056364052 0.015432335 -0.026499636 0.017403178 -0.032050304 0.07605628
0.042779114 0.034530286 -0.10330956 0.014424356 0.046006646 0.057903726 -0.013766559 -0.12860185
-0.13162376 0.024307663 0.0646267 0.09210562 0.07649349 -0.1460823 -0.12413024 0.065999694
0.14352074 -0.00074939267 0.037115347 -0.17108522 -0.07688117 0.08068647 0.045274742 -0.0053037857
-0.04880451 -0.19213562 -0.11103884 0.036049813 0.021257626 0.004643452 -0.17045073 -0.040307574
0.06944366 0.042611204 0.108201124 -0.07543288 -0.04563854 0.11823671 0.04811341 -0.029349394
-0.0052956934 -0.044421207 -0.022285996 0.0522359 -0.05100643 0.0010158964 0.07968522 0.016172884
0.013345304 -0.08265244 0.01591978 0.052631013 -0.016865585 -0.060762078 -0.06267013 -0.028276758
-0.023157649 -0.07793368 -0.0767239 0.042738084 -0.016511675 0.02530248 -0.009915633 -0.00025435432
0.009114506 0.054111175 0.019053167 -0.026421754 -0.07249509 0.06335442 -0.06127445 -0.054294318
-0.0025313722 0.038369864 -0.07356701 -0.026238486 -0.04376026 0.0074619167 -0.017083596 -0.045902412
-0.076744355 -0.04442531 -0.04025906 0.01832745 -0.037662614 0.011055277 -0.082573324 0.03583832
-0.023143092 0.043020118 -0.06801102 0.061445773 0.06992058 -0.061708156 -0.008385993 0.04233641
-0.07909016 -0.06313898 0.07282531 -0.010222627 -0.04958585 0.04134029 0.0045783934 0.034140225
-0.06331087 -0.06517592 -0.0732989 0.053627457 -0.04877975 0.015338642 0.003116688 0.054926943
-0.036892787 0.022413837 -0.008957114 -0.036090665 0.09516976 0.011377273 -0.019101717 0.054882977
-0.062668376 0.07645864 -0.056736473 0.041943137 -0.07682509 -0.07786755 0.03729916 0.06823812
0.0015260455 0.055400945 -0.06671241 -0.014263342 0.04148534 -0.07304082 -0.0494536 -0.08106156
-0.008290981 -0.026551181 -0.05088206 -0.049583375 -0.05863427 -0.014013521 0.038652513 0.06690063

conv2.bias f4 [16]
00000000: 39a5 013f 79a6 61bd 3f4d 62bf b42b 8e3e
00000010: 879e 4a3c 6872 4b3f 411f ad3e 656a a3be
00000020: 6c78 5fbe e778 bf3d 31be 4bbe acb9 b4bd
00000030: 153d 733e 52ef 883e d0f4 ce3e 196d c1be
0.50642735 -0.0550904 -0.8839912 0.27767718 0.012366897 0.79471445 0.33812907 -0.3191711
-0.21823281 0.09349232 -0.19896771 -0.088244766 0.2375377 0.26745087 0.40421152 -0.37778547

fc1.weight f4 [120, 400]
00000000: 73c5 2fbd 9f2f d3bc 847e 07bd f99f e83c
00000010: fad5 b03d 20b9 fbbc 4144 383b 6366 9e3a
00000020: e035 563d 98d6 9c3d d279 adba 081d 4dbd
00000030: 5335 92bb dfb1 c13d c435 15bc 3e45 353d
00000040: 8d8b 97bd b860 2cbd fb56 3e3d c09b 4b3c
00000050: 9d87 dfbc 7db6 043d 882b 083d 3d3e 84bd
00000060: d507 4c3b 1f45 133c 3420 36bd 544b 0e3d
00000070: 8ea2 d2bc 247d 35bd 0f9e b03b 4f2f 483d
00000080: 22cd f73c c56d 163d 20f3 26bd 2011 2ebd
00000090: adc2 123b 3073 043d 5d3c 403c e50b 943c
000000a0: 6858 35bd 05f2 36bd fa7a 2c3d eba1 043c
000000b0: 6a81 7d3c a3ce b6bc a71f ea3c 9924 5e3c
000000c0: 9f01 90bb 5372 433d b4f6 97bc c310 39bc
000000d0: 3d1c 01bd 34f1 c6bd efe5 a2bd 1845 9cbc
000000e0: 5636 183c 979f d03d 6816 693d 7971 10bc
000000f0: 393f 49bc 9593 f1bb bd11 6e3d 7145 633d
00000100: 4261 5dbd a055 9f3c 0946 96bb 80c8 17bd
00000110: a7bd 81bb ac86 1e3d 6387 cd3b 5420 253d
00000120: 5f1a 0b3d 4dad 9b3d 1ed5 ad3c 48e5 ac3c
00000130: 76a1 493c 9695 b6bc a190 49bd 4d83 9ebd
00000140: fd2f 9dbc 1ea4 60bc f635 0e3c 763f c3bc
00000150: de43 71bd ed33 e13c b6de 323c fb64 463d
00000160: 6936 c23c f507 e53c 40f2 03bd 2498 d83c
00000170: 2c84 b83d c151 d33b da57 a13c 745c e6bc
00000180: 3158 23bd 3e96 1a3d de01 943c 8a7d b3bb
00000190: 2242 1d3d 54c7 e93d 7cdf 943d 3d11 e13c
000001a0: 5242 6dbc cf54 9a3d 7321 4a3d e4dd 6b3b
000001b0: 5fc7 9e3c 3601 2ebd a0d3 313d 95bf 1e3d
000001c0: cf88 12bd 1da8 a3bd 2760 c8bc f405 36bd
000001d0: e39d 4ebc ef5c 4d3d 61ca 64bd 0721 123d
000001e0: cd99 e63b d801 18bd ba4a ce3c 1a6a ec3c
000001f0: 05c6 023d e96c 553c 12c5 1ebd 114b bd3c
00000200: 64bf dfbc c935 df3c de32 bd3d e4c1 3fbd
00000210: beaa 4cbd 310a acbd 7902 40bd eb98 043d
00000220: f704 c5bd 703b 95bc a73c f0bc 0540 3d3c
00000230: 0cb0 cc3d e2da be3a bcc8 583d b939 b63d
00000240: 4cfe 2bbc 8a50 3f3d 0d1d 5b3d 6ac3 b33d
00000250: c752 e03d 6d75 6a3d fb29 b2bd 8dfc cabd
00000260: f099 b7bc d175 59bc c0c2 00be 2575 a03c
00000270: d498 343c 45a3 613c a1ff 80bd 9331 903c
00000280: 6d1f 083d e0c4 9ebc b275 a6bd fd9e c4bd
00000290: 342c b7bb 44fd bc3d fd7e d4bc 1d79 12bc
000002a0: ca5d 2dbd 0893 03bd 5626 433b 0101 9f3c
000002b0: b46f 96bc 0173 0abd 77e1 3a3d c7e7 ac3d
000002c0: 779b b63c 82b9 9ebb 76b1 61bd 8fea 333b
000002d0: d80a 963d dbb7 91bc a408 b2bc 866d 87bd
000002e0: 87d4 1b3c c9fb 02bd 0b15 b73b 64fb 59bd
000002f0: fc33 8ebd 54bf 57bd 26c7 afbd 7f29 61bc
00000300: cb72 263d da78 dc3b c3e9 6cbd 8b90 703c
00000310: adca b93d 5ac5 c03d 7800 483d b1b9 b3bc
00000320: 9a7b 883c 3b11 29bd f7da bfbd e4e4 9dbd
00000330: f831 293d dddc 8cbd 68ce 393c 1f6f 22bc
00000340: 8125 bf3c 7ede dd3c 8cfa 85bd 8dfc 25bd
00000350: a564 d33c 5cca 533d 2a76 b83c d9b7 91bd
00000360: 46a7 febc 686c 5539 0c89 fa3c 6c05 643b
00000370: ea3b 03bd fa77 a1bc 7d9a a03d ce77 243c
00000380: 3719 b73c c2f6 42bd ae2e 03bb 454a 3bbc
00000390: 01e1 2b3d 92d6 ddbc 63a9 cdbc 04c5 833d
000003a0: 0348 6fbb 4f39 cb3b 37d9 89bd 0cf1 46bd
000003b0: 027c dcbc 69ce 153d c310 cc3c 7936 59bd
000003c0: 2225 c4ba 70e6 cebc 6faa 1c3d 81d0 d23c
000003d0: 84ed 10bd 1a18 e3bc a272 cc3c fef1 603c
000003e0: 2ceb 953b c353 bb3b 6db2 be3c a1e1 6c3d
000003f0: 8391 463d 5063 8cbc de26 0e3d a96f 583d
-0.04291291 -0.025779543 -0.03307964 0.028396593 0.08634563 -0.030727923 0.0028116854 0.0012084957
0.052297473 0.07658118 -0.0013235158 -0.050076514 -0.004461923 0.09457754 -0.009107057 0.044255488
-0.07399664 -0.042084426 0.04646967 0.01242727 -0.027286345 0.032400597 0.03324464 -0.064571835
0.0031132598 0.008988648 -0.044464305 0.034739807 -0.025712278 -0.044308797 0.005389936 0.048873242
0.030249182 0.036725778 -0.040759206 -0.0424968 0.0022393868 0.032336414 0.011733142 0.018072078
-0.044273764 -0.0446644 0.042109467 0.008095245 0.015472749 -0.022315329 0.028579546 0.01355853
-0.0043947245 0.04771645 -0.018550254 -0.0112955 -0.03152107 -0.097139746 -0.079540126 -0.019075915
0.009290298 0.10186689 0.056906134 -0.0088161165 -0.01228314 -0.0073723295 0.058122385 0.055486146
-0.05404783 0.019450009 -0.0045859856 -0.037056446 -0.003959376 0.03870265 0.006272243 0.040314034
0.033960696 0.07601414 0.021219786 0.021105424 0.012306562 -0.022288125 -0.049210194 -0.077398874
-0.019187922 -0.013711004 0.0086798575 -0.023833971 -0.058902614 0.02749058 0.010917356 0.048436146
0.023707585 0.027957896 -0.03221345 0.026439734 0.09009585 0.006448955 0.019695211 -0.028120257
-0.039879028 0.03774094 0.018067297 -0.005477612 0.038393147 0.11414972 0.07269189 0.02747404
-0.014481144 0.07535707 0.049348306 0.0035990411 0.019382177 -0.042481624 0.043414712 0.038756926
-0.035775002 -0.079910494 -0.024459912 -0.04443927 -0.012610885 0.050137457 -0.055857066 0.03567603
0.0070373775 -0.037111133 0.025182117 0.028859187 0.031927127 0.0130264545 -0.03876216 0.023107084
-0.027312942 0.027247326 0.09238218 -0.046815768 -0.04996752 -0.08400381 -0.046877358 0.032372396
-0.096200876 -0.018216819 -0.029325796 0.011550908 0.09994516 0.0014561082 0.05292581 0.088977285
-0.010497641 0.046707667 0.0534945 0.08777507 0.109532885 0.057240892 -0.086994134 -0.099114515
-0.02241227 -0.0132727185 -0.12574291 0.019587109 0.011022765 0.013771837 -0.06298757 0.017601764
0.033233095 -0.019380987 -0.08127917 -0.09600637 -0.005589986 0.09227994 -0.025939459 -0.0089400085
-0.042325772 -0.03212264 0.0029777489 0.019409658 -0.018363811 -0.033801083 0.045625176 0.084426455
0.022290928 -0.0048438916 -0.05510088 0.002745304 0.07326287 -0.017787864 -0.021732636 -0.06612687
0.00951112 -0.031978402 0.0055872253 -0.05321826 -0.06943509 -0.0526727 -0.085829064 -0.013742804
0.04063682 0.006728274 -0.05784012 0.014682899 0.090718605 0.09412642 0.048828572 -0.02193913
0.0166605 -0.041276198 -0.09367936 -0.07709673 0.04130742 -0.06878064 0.011340715 -0.009914189
0.023333313 0.027083632 -0.06541929 -0.040524054 0.025804827 0.051706657 0.022517283 -0.07115144
-0.031085622 0.00020353647 0.030582927 0.003479327 -0.03203956 -0.01971053 0.07841966 0.010038329
0.02235089 -0.047598608 -0.0020016837 -0.011431281 0.041962627 -0.027079854 -0.025105184 0.06434062
-0.0036511428 0.0062019 -0.067308836 -0.048569724 -0.0269146 0.0365738 0.024910336 -0.053030465
-0.001496468 -0.025256366 0.038248476 0.025734188 -0.035382763 -0.027721453 0.024957005 0.01372957
0.004575154 0.0057167723 0.02327844 0.057832364 0.048478615 -0.0171372 0.034705035 0.052840862

fc1.bias f4 [120]
00000000: b697 d83b 1504 c3bc 6098 f83c 4d73 c03d
00000010: c71a f3bc 3711 1d3b 517e 7bbc 4399 3e3a
00000020: 695f b2bd f9d5 12bc 4705 dc3d 0043 433c
00000030: bdfd 27ba 631c 0e3e 16d6 0c3e 8074 4c3d
00000040: 1910 8dbd c497 293d fae8 c8bc 4c0e 543d
00000050: c289 163c eb61 87bd 5f23 753d 37a2 a3bd
00000060: 2200 34bb f32d db3a cfe2 1ebd 4bb5 2c3c
00000070: 6c33 203d 9270 85bc dbb8 52bd 1c20 523d
00000080: aade 973d d2ba cf3c 4cd0 ae3c 2adf a03e
00000090: 5752 00be 9e9c d13b f7df 5c3e b6af 7a3d
000000a0: 6cf8 11bc 42b5 8dbd c492 0f3c 2d14 063e
000000b0: 1b69 b03c 7acc 373d 577b a33b 2f82 cfbd
000000c0: 5909 d2bd d14b f83d ac51 8abb 71af 113d
000000d0: af48 c33c 2329 753d 914a 423e 0b4c 9c3d
000000e0: 3665 67bd 9a48 3abd adb9 aabc c3e6 303d
000000f0: aa1e 073e da68 803d c91e fbbc b80f 48bd
00000100: 7aa6 7ebd 7f93 e33c 44ce 9d3c cba8 febc
00000110: 044c e53d 11f0 993d 7ade 9b3d ca21 513e
00000120: 8039 8fbc 92b5 5c3b ea6c 1fbd 15d5 a93d
00000130: 48e3 563e a9b0 d8bd 912b e13d a60c d4bc
00000140: 0715 0d3d a2fe 6f3c a2dc a53c 52a1 c5bb
00000150: 2f3d a8bc 434f d1bd 0256 8e3c 5c36 33bb
00000160: 644a 513c 6ec9 1f3d 157f ed3d bc9b aa3d
00000170: edbc a33d 724f 3bbd 0b25 72bd 7c78 5e3c
00000180: 698e d2bd 9c23 d93d 8dd1 0e3d bd00 eb3c
00000190: 4e72 a2bc 0ef7 bd3d 56ac 433d 487c bfbc
000001a0: ba3a 31bc 274e 1d3a 855e cc3c 2707 513d
000001b0: 8e11 15bc 7819 b4bd 7db4 b83c e05e 3fbd
000001c0: a568 e23d c24f f5bc 6847 303b 7b6e 163d
000001d0: 61fb 1abd 8eb3 553e 6362 483c 10cd 3a3d
0.006609882 -0.023805657 0.030346096 0.09396992 -0.029675854 0.002396656 -0.01534994 0.00072707626
-0.08709604 -0.008962148 0.10743194 0.0119178295 -0.00064083544 0.13878016 0.13753542 0.04991579
-0.06887836 0.0414045 -0.024525154 0.051771447 0.009188117 -0.06610473 0.059848186 -0.079899244
-0.00274659 0.0016722068 -0.03879052 0.0105412705 0.03911154 -0.01628903 -0.051445823 0.051300153
0.07415517 0.025357638 0.021339558 0.3142026 -0.1253141 0.006396844 0.21569811 0.061202727
-0.008909326 -0.06919338 0.008763019 0.13093634 0.021534493 0.04487274 0.0049890685 -0.101322524
-0.10255689 0.12123836 -0.004221162 0.035567705 0.02383837 0.059853684 0.18973757 0.076316915
-0.056493007 -0.045479394 -0.02084049 0.04318882 0.13195291 0.06269999 -0.030654328 -0.048843116
-0.062170483 0.027780293 0.019263394 -0.031086346 0.111961395 0.07516492 0.076107934 0.20423046
-0.017483473 0.003367756 -0.038922228 0.08292595 0.20985138 -0.1058057 0.10994638 -0.025884937
0.03444388 0.014648112 0.020246807 -0.006031194 -0.020536987 -0.10220196 0.017374996 -0.0027345633
0.012774084 0.039010458 0.115965046 0.08330485 0.07995019 -0.04573006 -0.05911736 0.01357853
-0.10281069 0.10602495 0.034867812 0.028686875 -0.019829895 0.092756376 0.047771774 -0.023374692
-0.010817224 0.00060007203 0.024947414 0.05103221 -0.009098424 -0.0879392 0.022547001 -0.04672134
0.110551156 -0.029945258 0.002689803 0.036726456 -0.03783739 0.20869276 0.0122304885 0.04560572

fc2.weight f4 [84, 120]
00000000: 43c0 12bd d266 1bbd 9844 953d a897 31bd
00000010: f9c8 d23d 30f0 0abd 912c 163d 5475 2f3d
00000020: 129b bb3c 092a 75bc 5347 95bb 7603 6ebd
00000030: dddb be3d 1dbd b03d b3d6 debc 2a82 ecbd
00000040: 5446 2ebd f62a 383a 6d56 d33b c9d4 183e
00000050: 0968 e6bc 45d3 59bd f336 ee3c 0036 c93d
00000060: 20c5 0abe 644d 973d da09 c83d 5f95 ac3c
00000070: 9c5d d8bd 7b23 be3c 2328 213e 582c ed3c
00000080: c9dc 033e e2ff 9e3d de6d 9d3c 585c 8a3d
00000090: fbe4 bcbb b9b5 00bd 389c 69bb 9c04 38bc
000000a0: 6a4c 9b3c e593 0dbd 5cae a5bc e281 013e
000000b0: 4d0a 1fbd 5066 a83d 4a4d 073d 2476 33bd
000000c0: e9ba 083e 9d2e 273d cb18 463d 0c17 b4bd
000000d0: 387a 87bd 15c3 cfbd 7aef bc3b f1fb 903d
000000e0: 28e3 99bc 940f ac3c 515a 21bd e3e5 213d
000000f0: e8f4 4ebc ad28 803d b895 9abd 4cc0 c8bd
00000100: fcb3 8cbc 0094 a0bd 9f4f 973d cc60 92bd
00000110: 8d69 d1bd 4ce6 b93b 2177 a2bd 7559 86bc
00000120: c384 513e 08ec abbd 734d fcbd 3340 88bd
00000130: 0e41 d5bd 7829 b5bc d855 c53d 2347 9bbd
00000140: 5f64 03bd 116d 9abd 7bf1 983d ac73 953c
00000150: 7b61 533d 0cff 07be e849 b0bd 048e 433d
00000160: d609 3d3d 03c6 16bc 6f8d 2a3b 064d 04be
00000170: 4cc0 e6bd b374 2d3e cb41 8c3d 6df1 763d
00000180: 17a1 ecbc b012 c4bd e924 3bbd 71e3 58bb
00000190: 643c c53b 3be9 b33d cf13 12be 3c02 ce3c
000001a0: 4e6f b4bc ab45 d5bd 9742 183e ebd2 883d
000001b0: b3d2 e13d e611 beb9 d215 78bd 1875 b63d
000001c0: 66bf cdbc 7587 ed3b 1844 c8bc 0e3f 7cbd
000001d0: 8230 29bd 8336 d83d 7a55 92bd 59a8 753d
000001e0: 0599 c2bc f2f2 db3c b050 40bd ce1b 9dbd
000001f0: 5130 a3bc d561 aabd 7627 8abd 73ab d1bc
00000200: 846b 1cbd b0bf 623d 5c46 223d 68a9 4a3c
00000210: be6c d4bc 1b03 58bd cbc5 62bd fcc5 3c3d
00000220: 03f6 a9bd f14e 75bd ea38 13bc ba5e 40bc
00000230: e5e2 9c3d c783 adbd 9d99 0d3b 9eec 87bd
00000240: fb9f 22bd d705 6a3d b125 873c ce8b aabd
00000250: 97af 143c 60ca 863d fed2 2ebd 2583 d13b
00000260: 32ab e9bc 57d0 3fbd 33ff 8a3c b705 4cbd
00000270: 9790 f93c cbc7 d53b 36f4 a93d cb3b 423d
00000280: 18e3 953d de5b 933c a2a9 893d 2259 91bc
00000290: b194 b73d 43cb 74bc 0d14 8f3c 04cb 7bbd
000002a0: 6c96 a4bd d16f 9cbd 5776 97bd 49b9 a2bb
000002b0: 48d0 5f3d 7eea a6bd e511 ddbc fc98 12bd
000002c0: f251 9fbd 5584 a3bc 1d86 a93c 6c63 b83d
000002d0: 1d96 a63c dc0d afbd af08 7abc 127a 89bd
000002e0: 19bb 65bd 66e7 773d 6546 b7bd 2bd5 c83c
000002f0: d65c 8fbd c1a3 86bd 0656 a6bd cdc8 8abd
00000300: 6ab4 a13d 7147 953d dd3c 5b3c 3b3e 58bd
00000310: 18b6 89bd 3068 84bb 3e96 b43d 3972 1bbd
00000320: 3ca7 623c 9b02 46bd 4c49 69bd 847f a8bd
00000330: a3b1 2bbd 8d6a 1c3d 1fef 45bd b79c d03a
00000340: 7ab4 13bd 591b 5ebc 061a 5e3c d923 763c
00000350: d326 1fbd fa0f 353c 1028 813d bcf0 89bd
00000360: 2f97 1c3d ed1a b6bd fea8 04bd 1112 7a3d
00000370: 892b 713d 0442 903c 7b46 e43c 8531 823d
00000380: 62be ab3d bfe9 3ebd 52db 39bd 011e 7d3d
00000390: ca79 863d f3e1 983d 2476 c9bc 5195 febc
000003a0: 20dc a3bd 783d bb3d 9fca ccbb c52f bdbd
000003b0: 8b0d ab3d e756 763d 6979 1f3d 3e4e 973c
000003c0: 5086 15bc 6a1e 97bd 39fc 0f3d 4ced 0f3d
000003d0: 056b 783b 6180 0c3c 151d 953d 792c 8abd
000003e0: 4ca1 943d 415f 713d f66c 8cbd 3866 e4bc
000003f0: 9503 80bd a8c2 45bd 54ea 77bb 4438 2e3d
-0.035827886 -0.037939854 0.07288474 -0.04335752 0.10292239 -0.033920467 0.036663596 0.042836502
0.022901092 -0.014963635 -0.0045556217 -0.05810877 0.09319279 0.086298205 -0.027201986 -0.11548264
-0.04254754 0.00070254446 0.0064495117 0.14924921 -0.02812578 -0.053179998 0.029078936 0.09824753
-0.1355176 0.07387808 0.09767504 0.02106732 -0.105647296 0.023210278 0.15737967 0.028951809
0.12877192 0.077636495 0.019217428 0.067558944 -0.0057646013 -0.031423304 -0.0035646092 -0.011231568
0.018957336 -0.03456487 -0.020224743 0.12647203 -0.038828183 0.082226396 0.033032693 -0.04381384
0.1335255 0.04081594 0.04836349 -0.08793458 -0.06615108 -0.10144631 0.0057658525 0.07079304
-0.018785074 0.021003522 -0.039392773 0.039525878 -0.012631632 0.06257758 -0.07548088 -0.09802303
-0.017175667 -0.07840729 0.073882334 -0.07147369 -0.1022521 0.0056732055 -0.07932878 -0.016400078
0.20460801 -0.08394629 -0.1231946 -0.0665287 -0.10412799 -0.0221145 0.09635514 -0.075819276
-0.032078143 -0.07540334 0.07467934 0.018243633 0.051606636 -0.13280886 -0.086078465 0.04774286
0.04615196 -0.009202483 0.0026024242 -0.12920007 -0.112671465 0.16939048 0.068484865 0.060288835
-0.028885407 -0.09573877 -0.045689497 -0.003309455 0.006019162 0.087847196 -0.14265369 0.02514755
-0.02202573 -0.10413679 0.14869152 0.066808544 0.11026516 -0.0003625296 -0.060567684 0.089090526
-0.02511568 0.0072488138 -0.024446532 -0.06158357 -0.041306026 0.10557272 -0.071452096 0.059975002
-0.023754606 0.026849244 -0.04695195 -0.07671319 -0.0199205 -0.08319441 -0.06745808 -0.025594449
-0.038188472 0.05535859 0.03961788 0.012369491 -0.025930759 -0.052737337 -0.05536441 0.04608725
-0.08298876 -0.059889738 -0.008985737 -0.011741335 0.07660464 -0.084724 0.0021606453 -0.06636928
-0.03970335 0.057134476 0.016497465 -0.08327447 0.009075067 0.06581569 -0.042681687 0.0063938075
-0.028524015 -0.046829548 0.016967392 -0.049810138 0.030464454 0.0065240613 0.08298533 0.047420304
0.07318705 0.017988142 0.06721808 -0.017742697 0.089639075 -0.0149410395 0.017465616 -0.061472908
-0.08036503 -0.07638515 -0.073956184 -0.0049659354 0.05464199 -0.081501946 -0.026986072 -0.03579043
-0.07779302 -0.019960562 0.020693833 0.09003338 0.020335251 -0.08547565 -0.015260859 -0.06712736
-0.056086633 0.060523413 -0.089489736 0.024515709 -0.07000129 -0.06574202 -0.081218764 -0.06776581
0.078957394 0.07289017 0.01338121 -0.052793723 -0.06724185 -0.0040407404 0.08817719 -0.037950728
0.013833817 -0.04834233 -0.056954667 -0.08227447 -0.041917454 0.038187552 -0.048323747 0.0015915845
-0.036060788 -0.013556325 0.013556009 0.015023195 -0.038855385 0.011051172 0.063064694 -0.067353696
0.038230117 -0.088918544 -0.032387726 0.061052386 0.05887941 0.017609604 0.027865639 0.06357101
0.08385922 -0.046609636 -0.045375176 0.061796192 0.06566198 0.074649714 -0.024592467 -0.031077059
-0.0800097 0.091425836 -0.0062497403 -0.09237627 0.083521925 0.06014147 0.038934145 0.018469926
-0.009126261 -0.07378848 0.035152648 0.035138413 0.0037905585 0.00857553 0.072809376 -0.06746764
0.072573274 0.05892873 -0.0685672 -0.027880773 -0.06250683 -0.04828134 -0.003782888 0.042534128

fc2.bias f4 [84]
00000000: aca5 01bd 997e 14bc bf7c 66bd 2eb8 c13b
00000010: 1d9d f4bc 2a03 e13a d68f f63d 8b09 feba
00000020: 6cbf 3bbc 043e 72bd b5bf a93c 6a89 dabd
00000030: 618c e6bd 13d6 913c ddfb 543d cf27 073f
00000040: d61d d2bd 8fc2 1d3e 5420 333d 5ebd 6d3e
00000050: c054 003d 86d1 87bd 6db7 5ebc 8f3c aa3d
00000060: 88a7 3bbd aaf8 133e 6660 083e 2e8a 953e
00000070: cb07 1bbd b75e 033e 3267 a13e c98e 05be
00000080: 658c 833c 46e8 6c3e 5236 d6bb 9866 68bd
00000090: 54b6 773e ad1b 1bbd 7893 983c c6c7 fb3b
000000a0: 02dd 173d 89b6 96bc 97ac 1fbb 2329 80bd
000000b0: ce60 20bd 7886 b93d 8abd a4bd a9a8 2a3e
000000c0: 8b9a fa3d 0142 b9bd 6b5c 4bbd a031 713d
000000d0: 980d 103d ec44 1ebd 3ac7 acbd 97e8 4cbb
000000e0: 6626 493e 9c46 fcbc 7c19 21bd 95d4 a7bd
000000f0: 2189 6e3b f3db a8bd 051f 923e c515 bd3e
00000100: 34f9 823d 8e9c 02bc d441 f03d 346a 0c3e
00000110: 39fd 7c3e a051 b73e f1b7 523c c666 593d
00000120: 8483 b1bd cd23 bdbd 5a07 47bc ec3b 8bbd
00000130: cf4d 27be 24a0 6b3e 29f2 c53c dfa1 8d3e
00000140: ea7d 843d 08b7 bebd 006f da3c 9515 d8bd
-0.031652138 -0.009063386 -0.05627131 0.0059118485 -0.029860074 0.0017167081 0.12039153 -0.0019381506
-0.011459213 -0.059141174 0.020721296 -0.10670741 -0.11257244 0.017802274 0.051998008 0.5279512
-0.10259597 0.1540625 0.043732002 0.23216769 0.031330824 -0.0663176 -0.013593537 0.08312332
-0.045814067 0.14450327 0.13318023 0.29206985 -0.03784923 0.128291 0.31524044 -0.1304275
0.016058156 0.2313548 -0.006537237 -0.056738466 0.24190646 -0.03786819 0.018625006 0.007683727
0.037076004 -0.018397586 -0.0024364346 -0.06257846 -0.03915482 0.09058851 -0.08043964 0.16665901
0.12236508 -0.09045792 -0.049648684 0.058885217 0.035169214 -0.038639948 -0.08436437 -0.0031266564
0.19643554 -0.030795388 -0.039330944 -0.08194844 0.0036397653 -0.08245077 0.2853929 0.3693067
0.06395188 -0.007971896 0.11731306 0.13712388 0.24705972 0.35804462 0.012861238 0.053076528
-0.08667663 -0.09235344 -0.012147749 -0.067985386 -0.16338275 0.23010308 0.024163323 0.2766256
0.06469329 -0.09312254 0.026664257 -0.105509914

fc3.weight f4 [10, 84]
00000000: b4dd 463e d533 0bbd d35d 80bd b29b 21bd
00000010: ffaf c13d 410a 51be 1c3e e43d 9e2a 7f3e
00000020: f1d8 64bd b025 843d a347 14bc 07cf 0c3d
00000030: 503f d93d 645f 863d c479 0dbe b9ba 80be
00000040: 84ae f7ba 0c6b f8bd 504e b63d e84d a4bd
00000050: b9d8 08bc 1331 d8bc 4ffc e2bc 8dae 143e
00000060: 0758 4b3d b564 5e3d 2742 87be 0f51 77bd
00000070: 1749 523c d5c2 2e3e 17b8 ac3e 92fe dc3d
00000080: f676 833e 9eef b7be 21e3 65be f7dd 543d
00000090: 729c 4fbe 2e3a e8bd 1ac3 2e3d 5af7 41bb
000000a0: 65cc d53d d4e9 6dbc 2d39 923d 9d95 bbbd
000000b0: 4049 72bd 4d21 cd3d a79c 05bd a93e 6b3e
000000c0: 13eb 52bc d5ea 793d d2d6 cc3d 611a 493e
000000d0: d366 debd 95f1 183e 243d c5bd e301 adbd
000000e0: 52b2 38be 5d34 bf3c a077 54bd 6e5d 8f3d
000000f0: bb2c 0fbc 4fb0 03bc eedc 953e e7d8 d7bd
00000100: e3de 5fbd fa76 033e 5247 f73d 02f1 2f3e
00000110: a352 1d3d 1963 2fbe 7227 c93d 2f75 efbd
00000120: 9440 38bd 455d 4f3e e4db b7bd 113b 803d
00000130: abf2 39bc 2bf3 663e b3fd ccbc f8b6 adbd
00000140: accb 203d 181b 0b3c d66b 0abd 0355 97bc
00000150: f920 063e 7fef b4bd 7cc0 64bd d59a 073d
00000160: b6f8 52bd 4dc5 8b3e 2356 a53e b6b6 f6bd
00000170: b558 2e3e d05f 503d 6385 c23d 48e0 963d
00000180: 7bb6 66bd 0af1 b13c 9210 8fbd 001b acbe
00000190: eb6b 723e a238 0fbe b657 84bd f569 89be
000001a0: 4968 643d 3229 d73d 1ec6 34bd c317 b13c
000001b0: 272c 85bd 6798 1abe bd0e 133e 7609 9fbd
000001c0: bcc7 d53d e874 75be f919 7abe 4b78 d9bc
000001d0: 14a2 2d3d c2e2 6bbe 72b0 183e c63a abbd
000001e0: 5b60 b4bd b37c abbd 8c8e 1a3d 6117 1b3e
000001f0: 72f3 38be 5240 8a3d 282b b63c b083 abbd
00000200: 1714 af3d 16a1 083e d1e7 ce3c 8bcc 393e
00000210: ba41 343d 707d 123d c97a 3fbc 4b01 993e
00000220: 4bf9 3fbb 20b6 0f3e 0391 a8bd 541b ee3c
00000230: 0982 9fbd 1c7a 13bd 2d03 7b3d 0d9d 7d3c
00000240: b52c 3f3d 2ecc 29bc 36f2 90bd 9879 a3be
00000250: 8df1 24be 1b8f 793d e10f a7be 83b9 463e
00000260: d252 793c 4ab5 adbd 6b15 e3bd 03c2 c3bd
00000270: 84d7 73bd cb98 a63e 67c3 523e c883 803d
00000280: e9f7 7a3e 155c bcbd d2e1 f43b c143 6dbd
00000290: 1c90 0ebe 5245 f93d cf59 7fbb db5f 8c3d
000002a0: eeb4 c93d 7379 97bb 9b6d a4bd f545 283d
000002b0: d36b 753d d257 e1bc 237f afbd abb1 6fbd
000002c0: 2364 233e 3e79 553d dd6d 06bd 5b15 b6bd
000002d0: 293b 1fbd 5b38 0ebe 9100 13be 5680 473d
000002e0: bdb6 ff3d 4939 bcbd 8d34 fd3d 3b69 42bc
000002f0: dc5d 903d eecf fc3c deca 05bd 1af4 cdbd
00000300: 1bd2 0ebc 4767 773d 18d2 803e a125 15be
00000310: b9f9 163e a584 4f3e f4de a73e b1c4 09be
00000320: d59c 4c3e 0402 4b3e 8772 91bb d7b2 fa3d
00000330: ebb7 223e ac82 36bd b166 bd3d 723f a9bd
00000340: 3481 0f3e 4d0c 133c 8bdf 32bd a424 923c
00000350: 8d04 bdbd a774 01be e6af fa3b 65f8 d2bd
00000360: 51eb 383d 696f 2e3d 01b6 edbc 3225 94bc
00000370: 4d59 00bd 6a68 d93d 773a 963d c930 0cbe
00000380: 9007 a23e f647 c2bc 8dd7 afbc ff27 973d
00000390: 7b96 a03d 179e 563d cfa9 2cbd 0172 c23d
000003a0: 1598 ffbc e49c c8bd 64be 1b3e 96d6 bcbd
000003b0: 6013 4a3e db3d 1d3e de67 d83c 878e 8f3e
000003c0: 24a6 b7bd 4217 12be b90c f7bd ef12 adba
000003d0: 2024 0bbe e374 1a3e cf17 573c f338 003e
000003e0: 5d33 b63d 87b9 47bb 0156 973d 74cd d8bc
000003f0: fb71 57be 0fe1 ad3c f656 d53c 1d70 cc3d
0.1942051 -0.033984978 -0.062678955 -0.039455123 0.09457397 -0.20414068 0.11144659 0.24918601
-0.055870954 0.06452501 -0.009050283 0.034377124 0.10607779 0.06561163 -0.13815981 -0.25142458
-0.0018896614 -0.121297926 0.08901656 -0.08022672 -0.008352452 -0.026390588 -0.0277082 0.14519711
0.049644496 0.05429526 -0.26417658 -0.060380038 0.012834809 0.1706651 0.337342 0.10790743
0.25676697 -0.35925 -0.22449924 0.051969495 -0.20274523 -0.11339222 0.042666532 -0.0029596896
0.10439376 -0.014521081 0.07139812 -0.09159396 -0.059151888 0.10016117 -0.0326201 0.22973122
-0.012873429 0.06101497 0.10001911 0.19638969 -0.10859456 0.14935906 -0.09630802 -0.084476255
-0.18036774 0.023340398 -0.051871896 0.07000242 -0.008738692 -0.008037641 0.29270118 -0.10539418
-0.05465592 0.12838355 0.1207415 0.17181781 0.038408887 -0.17127647 0.09821977 -0.11692273
-0.04498346 0.20250423 -0.08977488 0.06261266 -0.01134936 0.22553699 -0.025023317 -0.08482164
0.039256737 0.008490346 -0.033794247 -0.018473154 0.13098516 -0.08834743 -0.05584763 0.033106644
-0.05150672 0.27298966 0.3229228 -0.12046568 0.17026027 0.050872624 0.09498098 0.07366997
-0.05632637 0.021721382 -0.069855824 -0.3361435 0.2367398 -0.13986447 -0.06462042 -0.2683865
0.055763517 0.10505904 -0.04413425 0.021617776 -0.06502562 -0.150972 0.14361091 -0.077654764
0.10438487 -0.23970377 -0.2442397 -0.026546618 0.042390898 -0.2303572 0.14911059 -0.083608195
-0.08807441 -0.08373394 0.0377336 0.15145637 -0.18061617 0.067505494 0.022237375 -0.08374727
0.08548754 0.133427 0.025257023 0.18144433 0.044007994 0.035764158 -0.011686989 0.298838
-0.0029292877 0.14034319 -0.08230784 0.029065765 -0.07788474 -0.036005124 0.061282326 0.015479338
0.046673495 -0.010363622 -0.07077448 -0.31928706 -0.1610777 0.06092749 -0.32629302 0.19406705
0.0152175 -0.08481844 -0.110880695 -0.09558489 -0.059531704 0.32538447 0.20582353 0.06275135
0.24508633 -0.09197251 0.007473209 -0.057925943 -0.13922161 0.12171425 -0.0038963442 0.068542205
0.09848963 -0.004622632 -0.08028718 0.04108234 0.059917282 -0.027507696 -0.08569171 -0.058519047
0.15956168 0.05211758 -0.032819618 -0.08890792 -0.03887478 -0.13888685 -0.14355685 0.048706375
0.124860264 -0.09190614 0.12363539 -0.011865909 0.07049152 0.030860867 -0.032664172 -0.10056324
-0.008717085 0.060401227 0.2516029 -0.14565136 0.14743699 0.20265444 0.32787287 -0.13453938
0.19981702 0.19824988 -0.0044387016 0.12241142 0.15890472 -0.044558212 0.092481025 -0.08264054
0.14014131 0.008975101 -0.04367022 0.017839737 -0.092293836 -0.12642156 0.0076503633 -0.10301284
0.04514629 0.042586718 -0.02901745 -0.018084142 -0.031335164 0.106156185 0.0733537 -0.13690485
0.31646395 -0.023715954 -0.021465087 0.073806755 0.07841202 0.05239686 -0.04215413 0.09494401
-0.031200448 -0.097955495 0.15209347 -0.092206165 0.19733953 0.15355627 0.026416715 0.28038427
-0.08967236 -0.14266685 -0.120629735 -0.0013204495 -0.13588 0.15083651 0.013128235 0.12521724
0.088965155 -0.0030475573 0.07389451 -0.026465155 -0.21039574 0.02122548 0.026042443 0.099823214

fc3.bias f4 [10]
00000000: 1e39 f9bd f58a 04bf 93d4 db3d e86c 963e
00000010: 7ebd f43e a6aa 59bd a2f8 0e3e 9568 62be
00000020: 5bf0 a33e 705c 8bbe
-0.12169097 -0.5177453 0.10733905 0.29379964 0.4780082 -0.05314126 0.13962033 -0.22110207
0.32019314 -0.27218962
